…
2021-03-06 15:21:19 | INFO | fairseq.tasks.translation | [en] dictionary: 32768 types
2021-03-06 15:21:19 | INFO | fairseq.tasks.translation | [zh] dictionary: 32768 types
2021-03-06 15:21:19 | INFO | fairseq.data.data_utils | loaded 23809 examples from: data/data-bin-joint/valid.en-zh.en
2021-03-06 15:21:19 | INFO | fairseq.data.data_utils | loaded 23809 examples from: data/data-bin-joint/valid.en-zh.zh
2021-03-06 15:21:19 | INFO | fairseq.tasks.translation | data/data-bin-joint valid en-zh 23809 examples
2021-03-06 15:21:20 | INFO | fairseq_cli.train | PrimeTransformerModel(
  (encoder): PrimeTransformerEncoder(
    (dropout_module): FairseqDropout()
    (embed_tokens): Embedding(32768, 384, padding_idx=1)
    (embed_positions): SinusoidalPositionalEmbedding()
    (layers): ModuleList(
      (0): PrimeTransformerEncoderLayer(
        (self_attn): PrimeMultiheadAttention(
          (dynamics): ModuleList(
            (0): DynamicConv1dTBC(
              384, kernel_size=3, padding_l=1, num_heads=4, weight_softmax=True, conv_bias=False, renorm_padding=False, in_proj=False, weight_dropout=0.1
              (weight_linear): Linear(in_features=384, out_features=12, bias=False)
            )
            (1): DynamicConv1dTBC(
              384, kernel_size=15, padding_l=7, num_heads=4, weight_softmax=True, conv_bias=False, renorm_padding=False, in_proj=False, weight_dropout=0.1
              (weight_linear): Linear(in_features=384, out_features=60, bias=False)
            )
          )
          (out_proj): Linear(in_features=768, out_features=384, bias=True)
        )
        (self_attn_layer_norm): LayerNorm((384,), eps=1e-05, elementwise_affine=True)
        (dropout_module): FairseqDropout()
        (activation_dropout_module): FairseqDropout()
        (fc1): Linear(in_features=384, out_features=768, bias=True)
        (fc2): Linear(in_features=768, out_features=384, bias=True)
        (final_layer_norm): LayerNorm((384,), eps=1e-05, elementwise_affine=True)
      )
      (1): PrimeTransformerEncoderLayer(
        (self_attn): PrimeMultiheadAttention(
          (dynamics): ModuleList(
            (0): DynamicConv1dTBC(
              384, kernel_size=3, padding_l=1, num_heads=4, weight_softmax=True, conv_bias=False, renorm_padding=False, in_proj=False, weight_dropout=0.1
              (weight_linear): Linear(in_features=384, out_features=12, bias=False)
            )
            (1): DynamicConv1dTBC(
              384, kernel_size=15, padding_l=7, num_heads=4, weight_softmax=True, conv_bias=False, renorm_padding=False, in_proj=False, weight_dropout=0.1
              (weight_linear): Linear(in_features=384, out_features=60, bias=False)
            )
          )
          (out_proj): Linear(in_features=768, out_features=384, bias=True)
        )
        (self_attn_layer_norm): LayerNorm((384,), eps=1e-05, elementwise_affine=True)
        (dropout_module): FairseqDropout()
        (activation_dropout_module): FairseqDropout()
        (fc1): Linear(in_features=384, out_features=768, bias=True)
        (fc2): Linear(in_features=768, out_features=384, bias=True)
        (final_layer_norm): LayerNorm((384,), eps=1e-05, elementwise_affine=True)
      )
      (2): PrimeTransformerEncoderLayer(
        (self_attn): PrimeMultiheadAttention(
          (dynamics): ModuleList(
            (0): DynamicConv1dTBC(
              384, kernel_size=3, padding_l=1, num_heads=4, weight_softmax=True, conv_bias=False, renorm_padding=False, in_proj=False, weight_dropout=0.1
              (weight_linear): Linear(in_features=384, out_features=12, bias=False)
            )
            (1): DynamicConv1dTBC(
              384, kernel_size=15, padding_l=7, num_heads=4, weight_softmax=True, conv_bias=False, renorm_padding=False, in_proj=False, weight_dropout=0.1
              (weight_linear): Linear(in_features=384, out_features=60, bias=False)
            )
          )
          (out_proj): Linear(in_features=768, out_features=384, bias=True)
        )
        (self_attn_layer_norm): LayerNorm((384,), eps=1e-05, elementwise_affine=True)
        (dropout_module): FairseqDropout()
        (activation_dropout_module): FairseqDropout()
        (fc1): Linear(in_features=384, out_features=768, bias=True)
        (fc2): Linear(in_features=768, out_features=384, bias=True)
        (final_layer_norm): LayerNorm((384,), eps=1e-05, elementwise_affine=True)
      )
      (3): PrimeTransformerEncoderLayer(
        (self_attn): PrimeMultiheadAttention(
          (dynamics): ModuleList(
            (0): DynamicConv1dTBC(
              384, kernel_size=3, padding_l=1, num_heads=4, weight_softmax=True, conv_bias=False, renorm_padding=False, in_proj=False, weight_dropout=0.1
              (weight_linear): Linear(in_features=384, out_features=12, bias=False)
            )
            (1): DynamicConv1dTBC(
              384, kernel_size=15, padding_l=7, num_heads=4, weight_softmax=True, conv_bias=False, renorm_padding=False, in_proj=False, weight_dropout=0.1
              (weight_linear): Linear(in_features=384, out_features=60, bias=False)
            )
          )
          (out_proj): Linear(in_features=768, out_features=384, bias=True)
        )
        (self_attn_layer_norm): LayerNorm((384,), eps=1e-05, elementwise_affine=True)
        (dropout_module): FairseqDropout()
        (activation_dropout_module): FairseqDropout()
        (fc1): Linear(in_features=384, out_features=768, bias=True)
        (fc2): Linear(in_features=768, out_features=384, bias=True)
        (final_layer_norm): LayerNorm((384,), eps=1e-05, elementwise_affine=True)
      )
      (4): PrimeTransformerEncoderLayer(
        (self_attn): PrimeMultiheadAttention(
          (dynamics): ModuleList(
            (0): DynamicConv1dTBC(
              384, kernel_size=3, padding_l=1, num_heads=4, weight_softmax=True, conv_bias=False, renorm_padding=False, in_proj=False, weight_dropout=0.1
              (weight_linear): Linear(in_features=384, out_features=12, bias=False)
            )
            (1): DynamicConv1dTBC(
              384, kernel_size=15, padding_l=7, num_heads=4, weight_softmax=True, conv_bias=False, renorm_padding=False, in_proj=False, weight_dropout=0.1
              (weight_linear): Linear(in_features=384, out_features=60, bias=False)
            )
          )
          (out_proj): Linear(in_features=768, out_features=384, bias=True)
        )
        (self_attn_layer_norm): LayerNorm((384,), eps=1e-05, elementwise_affine=True)
        (dropout_module): FairseqDropout()
        (activation_dropout_module): FairseqDropout()
        (fc1): Linear(in_features=384, out_features=768, bias=True)
        (fc2): Linear(in_features=768, out_features=384, bias=True)
        (final_layer_norm): LayerNorm((384,), eps=1e-05, elementwise_affine=True)
      )
      (5): PrimeTransformerEncoderLayer(
        (self_attn): PrimeMultiheadAttention(
          (dynamics): ModuleList(
            (0): DynamicConv1dTBC(
              384, kernel_size=3, padding_l=1, num_heads=4, weight_softmax=True, conv_bias=False, renorm_padding=False, in_proj=False, weight_dropout=0.1
              (weight_linear): Linear(in_features=384, out_features=12, bias=False)
            )
            (1): DynamicConv1dTBC(
              384, kernel_size=15, padding_l=7, num_heads=4, weight_softmax=True, conv_bias=False, renorm_padding=False, in_proj=False, weight_dropout=0.1
              (weight_linear): Linear(in_features=384, out_features=60, bias=False)
            )
          )
          (out_proj): Linear(in_features=768, out_features=384, bias=True)
        )
        (self_attn_layer_norm): LayerNorm((384,), eps=1e-05, elementwise_affine=True)
        (dropout_module): FairseqDropout()
        (activation_dropout_module): FairseqDropout()
        (fc1): Linear(in_features=384, out_features=768, bias=True)
        (fc2): Linear(in_features=768, out_features=384, bias=True)
        (final_layer_norm): LayerNorm((384,), eps=1e-05, elementwise_affine=True)
      )
      (6): PrimeTransformerEncoderLayer(
        (self_attn): PrimeMultiheadAttention(
          (dynamics): ModuleList(
            (0): DynamicConv1dTBC(
              384, kernel_size=3, padding_l=1, num_heads=4, weight_softmax=True, conv_bias=False, renorm_padding=False, in_proj=False, weight_dropout=0.1
              (weight_linear): Linear(in_features=384, out_features=12, bias=False)
            )
            (1): DynamicConv1dTBC(
              384, kernel_size=15, padding_l=7, num_heads=4, weight_softmax=True, conv_bias=False, renorm_padding=False, in_proj=False, weight_dropout=0.1
              (weight_linear): Linear(in_features=384, out_features=60, bias=False)
            )
          )
          (out_proj): Linear(in_features=768, out_features=384, bias=True)
        )
        (self_attn_layer_norm): LayerNorm((384,), eps=1e-05, elementwise_affine=True)
        (dropout_module): FairseqDropout()
        (activation_dropout_module): FairseqDropout()
        (fc1): Linear(in_features=384, out_features=768, bias=True)
        (fc2): Linear(in_features=768, out_features=384, bias=True)
        (final_layer_norm): LayerNorm((384,), eps=1e-05, elementwise_affine=True)
      )
      (7): PrimeTransformerEncoderLayer(
        (self_attn): PrimeMultiheadAttention(
          (dynamics): ModuleList(
            (0): DynamicConv1dTBC(
              384, kernel_size=3, padding_l=1, num_heads=4, weight_softmax=True, conv_bias=False, renorm_padding=False, in_proj=False, weight_dropout=0.1
              (weight_linear): Linear(in_features=384, out_features=12, bias=False)
            )
            (1): DynamicConv1dTBC(
              384, kernel_size=15, padding_l=7, num_heads=4, weight_softmax=True, conv_bias=False, renorm_padding=False, in_proj=False, weight_dropout=0.1
              (weight_linear): Linear(in_features=384, out_features=60, bias=False)
            )
          )
          (out_proj): Linear(in_features=768, out_features=384, bias=True)
        )
        (self_attn_layer_norm): LayerNorm((384,), eps=1e-05, elementwise_affine=True)
        (dropout_module): FairseqDropout()
        (activation_dropout_module): FairseqDropout()
        (fc1): Linear(in_features=384, out_features=768, bias=True)
        (fc2): Linear(in_features=768, out_features=384, bias=True)
        (final_layer_norm): LayerNorm((384,), eps=1e-05, elementwise_affine=True)
      )
    )
  )
  (decoder): PrimeTransformerDecoder(
    (dropout_module): FairseqDropout()
    (embed_tokens): Embedding(32768, 384, padding_idx=1)
    (embed_positions): SinusoidalPositionalEmbedding()
    (layers): ModuleList(
      (0): PrimeTransformerDecoderLayer(
        (dropout_module): FairseqDropout()
        (self_attn): PrimeMultiheadAttention(
          (dynamics): ModuleList(
            (0): DynamicConv1dTBC(
              384, kernel_size=3, padding_l=2, num_heads=4, weight_softmax=True, conv_bias=False, renorm_padding=False, in_proj=False, weight_dropout=0.1
              (weight_linear): Linear(in_features=384, out_features=12, bias=False)
            )
            (1): DynamicConv1dTBC(
              384, kernel_size=15, padding_l=14, num_heads=4, weight_softmax=True, conv_bias=False, renorm_padding=False, in_proj=False, weight_dropout=0.1
              (weight_linear): Linear(in_features=384, out_features=60, bias=False)
            )
          )
          (out_proj): Linear(in_features=768, out_features=384, bias=True)
        )
        (activation_dropout_module): FairseqDropout()
        (self_attn_layer_norm): LayerNorm((384,), eps=1e-05, elementwise_affine=True)
        (encoder_attn): PrimeMultiheadAttention(
          (dynamics): ModuleList()
          (out_proj): Linear(in_features=384, out_features=384, bias=True)
        )
        (encoder_attn_layer_norm): LayerNorm((384,), eps=1e-05, elementwise_affine=True)
        (fc1): Linear(in_features=384, out_features=768, bias=True)
        (fc2): Linear(in_features=768, out_features=384, bias=True)
        (final_layer_norm): LayerNorm((384,), eps=1e-05, elementwise_affine=True)
      )
      (1): PrimeTransformerDecoderLayer(
        (dropout_module): FairseqDropout()
        (self_attn): PrimeMultiheadAttention(
          (dynamics): ModuleList(
            (0): DynamicConv1dTBC(
              384, kernel_size=3, padding_l=2, num_heads=4, weight_softmax=True, conv_bias=False, renorm_padding=False, in_proj=False, weight_dropout=0.1
              (weight_linear): Linear(in_features=384, out_features=12, bias=False)
            )
            (1): DynamicConv1dTBC(
              384, kernel_size=15, padding_l=14, num_heads=4, weight_softmax=True, conv_bias=False, renorm_padding=False, in_proj=False, weight_dropout=0.1
              (weight_linear): Linear(in_features=384, out_features=60, bias=False)
            )
          )
          (out_proj): Linear(in_features=768, out_features=384, bias=True)
        )
        (activation_dropout_module): FairseqDropout()
        (self_attn_layer_norm): LayerNorm((384,), eps=1e-05, elementwise_affine=True)
        (encoder_attn): PrimeMultiheadAttention(
          (dynamics): ModuleList()
          (out_proj): Linear(in_features=384, out_features=384, bias=True)
        )
        (encoder_attn_layer_norm): LayerNorm((384,), eps=1e-05, elementwise_affine=True)
        (fc1): Linear(in_features=384, out_features=768, bias=True)
        (fc2): Linear(in_features=768, out_features=384, bias=True)
        (final_layer_norm): LayerNorm((384,), eps=1e-05, elementwise_affine=True)
      )
      (2): PrimeTransformerDecoderLayer(
        (dropout_module): FairseqDropout()
        (self_attn): PrimeMultiheadAttention(
          (dynamics): ModuleList(
            (0): DynamicConv1dTBC(
              384, kernel_size=3, padding_l=2, num_heads=4, weight_softmax=True, conv_bias=False, renorm_padding=False, in_proj=False, weight_dropout=0.1
              (weight_linear): Linear(in_features=384, out_features=12, bias=False)
            )
            (1): DynamicConv1dTBC(
              384, kernel_size=15, padding_l=14, num_heads=4, weight_softmax=True, conv_bias=False, renorm_padding=False, in_proj=False, weight_dropout=0.1
              (weight_linear): Linear(in_features=384, out_features=60, bias=False)
            )
          )
          (out_proj): Linear(in_features=768, out_features=384, bias=True)
        )
        (activation_dropout_module): FairseqDropout()
        (self_attn_layer_norm): LayerNorm((384,), eps=1e-05, elementwise_affine=True)
        (encoder_attn): PrimeMultiheadAttention(
          (dynamics): ModuleList()
          (out_proj): Linear(in_features=384, out_features=384, bias=True)
        )
        (encoder_attn_layer_norm): LayerNorm((384,), eps=1e-05, elementwise_affine=True)
        (fc1): Linear(in_features=384, out_features=768, bias=True)
        (fc2): Linear(in_features=768, out_features=384, bias=True)
        (final_layer_norm): LayerNorm((384,), eps=1e-05, elementwise_affine=True)
      )
      (3): PrimeTransformerDecoderLayer(
        (dropout_module): FairseqDropout()
        (self_attn): PrimeMultiheadAttention(
          (dynamics): ModuleList(
            (0): DynamicConv1dTBC(
              384, kernel_size=3, padding_l=2, num_heads=4, weight_softmax=True, conv_bias=False, renorm_padding=False, in_proj=False, weight_dropout=0.1
              (weight_linear): Linear(in_features=384, out_features=12, bias=False)
            )
            (1): DynamicConv1dTBC(
              384, kernel_size=15, padding_l=14, num_heads=4, weight_softmax=True, conv_bias=False, renorm_padding=False, in_proj=False, weight_dropout=0.1
              (weight_linear): Linear(in_features=384, out_features=60, bias=False)
            )
          )
          (out_proj): Linear(in_features=768, out_features=384, bias=True)
        )
        (activation_dropout_module): FairseqDropout()
        (self_attn_layer_norm): LayerNorm((384,), eps=1e-05, elementwise_affine=True)
        (encoder_attn): PrimeMultiheadAttention(
          (dynamics): ModuleList()
          (out_proj): Linear(in_features=384, out_features=384, bias=True)
        )
        (encoder_attn_layer_norm): LayerNorm((384,), eps=1e-05, elementwise_affine=True)
        (fc1): Linear(in_features=384, out_features=768, bias=True)
        (fc2): Linear(in_features=768, out_features=384, bias=True)
        (final_layer_norm): LayerNorm((384,), eps=1e-05, elementwise_affine=True)
      )
      (4): PrimeTransformerDecoderLayer(
        (dropout_module): FairseqDropout()
        (self_attn): PrimeMultiheadAttention(
          (dynamics): ModuleList(
            (0): DynamicConv1dTBC(
              384, kernel_size=3, padding_l=2, num_heads=4, weight_softmax=True, conv_bias=False, renorm_padding=False, in_proj=False, weight_dropout=0.1
              (weight_linear): Linear(in_features=384, out_features=12, bias=False)
            )
            (1): DynamicConv1dTBC(
              384, kernel_size=15, padding_l=14, num_heads=4, weight_softmax=True, conv_bias=False, renorm_padding=False, in_proj=False, weight_dropout=0.1
              (weight_linear): Linear(in_features=384, out_features=60, bias=False)
            )
          )
          (out_proj): Linear(in_features=768, out_features=384, bias=True)
        )
        (activation_dropout_module): FairseqDropout()
        (self_attn_layer_norm): LayerNorm((384,), eps=1e-05, elementwise_affine=True)
        (encoder_attn): PrimeMultiheadAttention(
          (dynamics): ModuleList()
          (out_proj): Linear(in_features=384, out_features=384, bias=True)
        )
        (encoder_attn_layer_norm): LayerNorm((384,), eps=1e-05, elementwise_affine=True)
        (fc1): Linear(in_features=384, out_features=768, bias=True)
        (fc2): Linear(in_features=768, out_features=384, bias=True)
        (final_layer_norm): LayerNorm((384,), eps=1e-05, elementwise_affine=True)
      )
      (5): PrimeTransformerDecoderLayer(
        (dropout_module): FairseqDropout()
        (self_attn): PrimeMultiheadAttention(
          (dynamics): ModuleList(
            (0): DynamicConv1dTBC(
              384, kernel_size=3, padding_l=2, num_heads=4, weight_softmax=True, conv_bias=False, renorm_padding=False, in_proj=False, weight_dropout=0.1
              (weight_linear): Linear(in_features=384, out_features=12, bias=False)
            )
            (1): DynamicConv1dTBC(
              384, kernel_size=15, padding_l=14, num_heads=4, weight_softmax=True, conv_bias=False, renorm_padding=False, in_proj=False, weight_dropout=0.1
              (weight_linear): Linear(in_features=384, out_features=60, bias=False)
            )
          )
          (out_proj): Linear(in_features=768, out_features=384, bias=True)
        )
        (activation_dropout_module): FairseqDropout()
        (self_attn_layer_norm): LayerNorm((384,), eps=1e-05, elementwise_affine=True)
        (encoder_attn): PrimeMultiheadAttention(
          (dynamics): ModuleList()
          (out_proj): Linear(in_features=384, out_features=384, bias=True)
        )
        (encoder_attn_layer_norm): LayerNorm((384,), eps=1e-05, elementwise_affine=True)
        (fc1): Linear(in_features=384, out_features=768, bias=True)
        (fc2): Linear(in_features=768, out_features=384, bias=True)
        (final_layer_norm): LayerNorm((384,), eps=1e-05, elementwise_affine=True)
      )
      (6): PrimeTransformerDecoderLayer(
        (dropout_module): FairseqDropout()
        (self_attn): PrimeMultiheadAttention(
          (dynamics): ModuleList(
            (0): DynamicConv1dTBC(
              384, kernel_size=3, padding_l=2, num_heads=4, weight_softmax=True, conv_bias=False, renorm_padding=False, in_proj=False, weight_dropout=0.1
              (weight_linear): Linear(in_features=384, out_features=12, bias=False)
            )
            (1): DynamicConv1dTBC(
              384, kernel_size=15, padding_l=14, num_heads=4, weight_softmax=True, conv_bias=False, renorm_padding=False, in_proj=False, weight_dropout=0.1
              (weight_linear): Linear(in_features=384, out_features=60, bias=False)
            )
          )
          (out_proj): Linear(in_features=768, out_features=384, bias=True)
        )
        (activation_dropout_module): FairseqDropout()
        (self_attn_layer_norm): LayerNorm((384,), eps=1e-05, elementwise_affine=True)
        (encoder_attn): PrimeMultiheadAttention(
          (dynamics): ModuleList()
          (out_proj): Linear(in_features=384, out_features=384, bias=True)
        )
        (encoder_attn_layer_norm): LayerNorm((384,), eps=1e-05, elementwise_affine=True)
        (fc1): Linear(in_features=384, out_features=768, bias=True)
        (fc2): Linear(in_features=768, out_features=384, bias=True)
        (final_layer_norm): LayerNorm((384,), eps=1e-05, elementwise_affine=True)
      )
      (7): PrimeTransformerDecoderLayer(
        (dropout_module): FairseqDropout()
        (self_attn): PrimeMultiheadAttention(
          (dynamics): ModuleList(
            (0): DynamicConv1dTBC(
              384, kernel_size=3, padding_l=2, num_heads=4, weight_softmax=True, conv_bias=False, renorm_padding=False, in_proj=False, weight_dropout=0.1
              (weight_linear): Linear(in_features=384, out_features=12, bias=False)
            )
            (1): DynamicConv1dTBC(
              384, kernel_size=15, padding_l=14, num_heads=4, weight_softmax=True, conv_bias=False, renorm_padding=False, in_proj=False, weight_dropout=0.1
              (weight_linear): Linear(in_features=384, out_features=60, bias=False)
            )
          )
          (out_proj): Linear(in_features=768, out_features=384, bias=True)
        )
        (activation_dropout_module): FairseqDropout()
        (self_attn_layer_norm): LayerNorm((384,), eps=1e-05, elementwise_affine=True)
        (encoder_attn): PrimeMultiheadAttention(
          (dynamics): ModuleList()
          (out_proj): Linear(in_features=384, out_features=384, bias=True)
        )
        (encoder_attn_layer_norm): LayerNorm((384,), eps=1e-05, elementwise_affine=True)
        (fc1): Linear(in_features=384, out_features=768, bias=True)
        (fc2): Linear(in_features=768, out_features=384, bias=True)
        (final_layer_norm): LayerNorm((384,), eps=1e-05, elementwise_affine=True)
      )
    )
    (output_projection): Linear(in_features=384, out_features=32768, bias=False)
  )
)
2021-03-06 15:21:20 | INFO | fairseq_cli.train | task: translation (TranslationTask)
2021-03-06 15:21:20 | INFO | fairseq_cli.train | model: prime_transformer_wmt_en_zh (PrimeTransformerModel)
2021-03-06 15:21:20 | INFO | fairseq_cli.train | criterion: label_smoothed_cross_entropy (LabelSmoothedCrossEntropyCriterion)
2021-03-06 15:21:20 | INFO | fairseq_cli.train | num. model params: 39063584 (num. trained: 39063584)
…
